src/nn/vad/model.ckpt (torch, 452671 bytes, 47 tensors)

0.norm1.norm.weight f4 [40]
0	0x3f7b4753	0.9815571
1	0x3f8d977d	1.1061856
2	0x3f8acfc7	1.0844659
3	0x3f97a987	1.1848611
4	0x3f986102	1.1904604
5	0x3f95d1ac	1.1704612
6	0x3f9b455f	1.2130545
7	0x3fa202a9	1.2657062
8	0x3f9ad692	1.2096732
9	0x3f9681c3	1.175835
10	0x3f8e6500	1.1124573
11	0x3f88e928	1.0696154
12	0x3f839acf	1.0281619
13	0x3f800856	1.0002544
14	0x3f7e45d9	0.9932533
15	0x3f8187eb	1.0119604
16	0x3f82af1a	1.0209687
17	0x3f863c1c	1.0487094
18	0x3f7fc518	0.99910116
19	0x3f7a68db	0.97816247
20	0x3f80658e	1.0030992
21	0x3f76c7c2	0.96398556
22	0x3f5e9b93	0.8695614
23	0x3f54b4c3	0.8308832
24	0x3f53cb4d	0.8273209
25	0x3f504ef7	0.8137049
26	0x3f4c72a8	0.7986245
27	0x3f5440ca	0.8291136
28	0x3f60a2d1	0.8774844
29	0x3f4b0eba	0.79319346
30	0x3f5e43f4	0.8682244
31	0x3f503bb3	0.81341094
32	0x3f4e53ca	0.805966
33	0x3f4103af	0.75396246
34	0x3f45a50c	0.77204967
35	0x3f5394ec	0.8264911
36	0x3f4e34c1	0.80549246
37	0x3f528916	0.82240427
38	0x3f576c1b	0.8414933
39	0x3fa8656d	1.3155953

0.norm1.norm.bias f4 [40]
0	0x3d8f1b08	0.06987578
1	0x3dfdfb7c	0.124014825
2	0x3c5ddb02	0.013540985
3	0xbc1cd141	-0.009571374
4	0x3d9cc8b8	0.076554716
5	0xbc45f961	-0.012083382
6	0x3c245eb5	0.010032346
7	0x3d299be7	0.041408446
8	0x3d404c1d	0.046947587
9	0x3bea68dd	0.007153614
10	0xbd75d882	-0.06002093
11	0xbde22360	-0.110419035
12	0xbdee31e9	-0.11630613
13	0xbd949049	-0.07254083
14	0xbd60592e	-0.05477255
15	0xbda965e1	-0.08271385
16	0xbc422d3e	-0.011851607
17	0xbd04b850	-0.032402337
18	0x3b30db01	0.0026986005
19	0xbd51ef06	-0.05125334
20	0xbd8814f1	-0.06644619
21	0xbd6b6317	-0.057467546
22	0xbd071247	-0.032976415
23	0x3d2f387d	0.04277848
24	0x3bad5b39	0.0052904156
25	0xbc4a0fa0	-0.012332827
26	0xbdb63002	-0.088958755
27	0xbd9db7a3	-0.077010415
28	0xbd9842bd	-0.07434604
29	0xbe496b70	-0.1966989
30	0xbd81cfee	-0.063384876
31	0xbdd052fd	-0.10172079
32	0xbd84a420	-0.06476617
33	0xbe14b28b	-0.14521234
34	0xbe0105d9	-0.12599887
35	0xbcb3ec71	-0.02196333
36	0xbc4b8169	-0.0124209905
37	0x3cfc92db	0.030831745
38	0xbc30c00a	-0.010787973
39	0x3e42ed4e	0.19035837

0.cnn1.conv_1.conv.weight f4 [16, 1, 3, 3]
0	0x3d006b4a	0.03135232
1	0xbd834499	-0.06409568
2	0x3d86c455	0.06580416
3	0xbebc7a96	-0.36812276
4	0x3ec98c40	0.39364815
5	0xbcaad02c	-0.020851217
6	0x3e8fed9a	0.28110963
7	0xbea4bdde	-0.32176107
8	0x3c8eda98	0.017438218
9	0xbc9a09b7	-0.01880346
10	0x3e50fcc1	0.20408918
11	0xbd632665	-0.055456538
12	0x3e95d3b9	0.29263094
13	0xbe0e021f	-0.13867997
14	0x3ec0833a	0.37600118
15	0xbe7eb071	-0.24871995
16	0xbe2aa3f5	-0.16664107
17	0xbe0c50fd	-0.1370277
18	0x3e3977cc	0.18112105
19	0xbe98f544	-0.29874623
20	0x3d60cafd	0.054881085
21	0x3d0f3269	0.034960184
22	0x3d5f1fe9	0.05447379
23	0x3daec8d0	0.08534396
24	0x3dcf17c3	0.10111954
25	0x3da45bfb	0.080253564
26	0x3d5e6218	0.05429277
27	0x3ea82275	0.3283879
28	0x3e1f6fd0	0.15569997
29	0xbe63ff55	-0.2226537
30	0xbe9554ab	-0.2916616
31	0x3ee8468f	0.45366332
32	0x3a16c498	0.00057513407
33	0xbe80aa6b	-0.2513002
34	0x3e8291b1	0.2550178
35	0x3d4e72af	0.05040234
36	0x3cb4af76	0.022056323
37	0xbdb91315	-0.09036843
38	0xbd57ced5	-0.052687485
39	0xbd0c677e	-0.034278385
40	0xbeed22f6	-0.46315736
41	0x3e09aa6a	0.13443914
42	0x3e870017	0.26367256
43	0x3e959216	0.29213017
44	0x3e279a46	0.16367444
45	0xbc736a30	-0.01485686
46	0x3e70fdb1	0.23534276
47	0x3ec05866	0.37567443
48	0x3d3d7651	0.046255413
49	0xbdee8bb3	-0.11647739
50	0xbd3fae24	-0.046796933
51	0xbe4d7b40	-0.20066547
52	0x3dae7bbf	0.085196964
53	0xbda6c161	-0.08142353
54	0x3c4a2732	0.012338446
55	0x3e1568bc	0.14590734
56	0x3ddd22d3	0.10797658
57	0xbd6a2d5a	-0.057172157
58	0x3d8cab94	0.068686634
59	0xbed123ab	-0.40847525
60	0xbe85bd44	-0.2612096
61	0x3e341ef4	0.17589933
62	0x3ebc949c	0.3683213
63	0x3eff5bdd	0.49874774
64	0xbe7c2756	-0.2462438
65	0xbd891565	-0.06693534
66	0x3e368a8f	0.17826293
67	0x3e586085	0.2113057
68	0xbe30dd4a	-0.17271915
69	0xbd6670bd	-0.05625986
70	0xbe66653f	-0.2249956
71	0x3c6dec92	0.014521735
72	0xbeaa0da8	-0.33213544
73	0x3ea43269	0.3206971
74	0xbe860f37	-0.26183483
75	0x3efef208	0.4979403
76	0x3e2a134e	0.16608927
77	0x3e174e60	0.14775991
78	0xbe003212	-0.125191
79	0xbe53c07a	-0.20678893
80	0xbd5b9a28	-0.05361381
81	0xbe3d2d84	-0.18474394
82	0x3a909fd6	0.0011033963
83	0x3e7c1864	0.2461868
84	0xbd6d8040	-0.057983637
85	0xbdf9fa5d	-0.12205956
86	0x3e6cd6ac	0.23128766
87	0x3eaf240c	0.3420719
88	0xbc1ac92a	-0.009447375
89	0xbec007cf	-0.37505957
90	0x3b78da82	0.0037972038
91	0xbe423c8b	-0.18968408
92	0xbea0d450	-0.31411982
93	0x3e00ac5b	0.12565748
94	0x3e850b5a	0.25985223
95	0xbe60ef94	-0.21966392
96	0xbd3f705c	-0.046738014
97	0x3e892e9d	0.26793376
98	0x3e7ad64f	0.24495815
99	0xbd4cfb98	-0.050044626
100	0xbe7e0d66	-0.24809799
101	0xbe3fa184	-0.18713957
102	0xbd6f0f95	-0.05836447
103	0xbe301032	-0.17193678
104	0xbca712e6	-0.020394754
105	0x3e28ab1b	0.16471522
106	0xbdee8914	-0.11647239
107	0x3e469a24	0.19394737
108	0xbbf56fe1	-0.0074901436
109	0x3dd9f92b	0.10643228
110	0x3df9a64e	0.12189923
111	0x3d8b5047	0.06802421
112	0x3c2edde2	0.010673018
113	0x3d49215b	0.049104076
114	0x3dea6097	0.11444204
115	0x3c911bf1	0.017713519
116	0xbd23a335	-0.03995057
117	0xbeae5e7b	-0.34056458
118	0x3e41a9b4	0.18912393
119	0x3ed3c619	0.41362074
120	0x3e5e6053	0.21716432
121	0x3ea47324	0.32119095
122	0xbec68c1c	-0.3877877
123	0x3cd22ec7	0.02565707
124	0x3d33e9e0	0.043924212
125	0xbe106936	-0.14102635
126	0xbe77a178	-0.24182689
127	0xbe0fbce5	-0.14036901
128	0x3eebbc2e	0.46042007
129	0xbddc35ef	-0.107524745
130	0xbe83f011	-0.25769094
131	0x3e30737c	0.17231554
132	0xbe56b3f5	-0.20967086
133	0x3e798e4a	0.24370685
134	0x3e4c0e02	0.19927219
135	0x3f147335	0.5798829
136	0xbe5b8757	-0.21438347
137	0xbe057c0a	-0.13035598
138	0xbea95900	-0.33075714
139	0xbd8eab1c	-0.0696623
140	0x3e50cb85	0.20390137
141	0xbac9db2f	-0.0015400405
142	0x3d8ab41a	0.06772633
143	0xbc22e50a	-0.0099423025

0.cnn1.conv_1.conv.bias f4 [16]
0	0x3be36f88	0.006940786
1	0x3e17214d	0.14758797
2	0x3ebc442a	0.36770755
3	0xbe8ef519	-0.2792137
4	0x3e20269b	0.15639727
5	0x3e08910b	0.1333658
6	0x3ead540c	0.33853185
7	0x3e40707d	0.18792911
8	0xbd4c6417	-0.04990014
9	0xbd959ef5	-0.07305709
10	0xbe26122a	-0.16217867
11	0x3b4438b4	0.0029941024
12	0x3dd3a85c	0.103348464
13	0xbe4e1576	-0.20125374
14	0xbe16e54f	-0.14735912
15	0x3c8f7c8b	0.017515441

0.cnn1.norm_1.norm.weight f4 [40, 16]
0	0x3f3aaf8c	0.72924113
1	0x3fb192e7	1.3872956
2	0x3f883dff	1.064392
3	0x3f9ceb87	1.2259377
4	0x3f962ad8	1.1731825
5	0x3f68c216	0.9092115
6	0x3f944559	1.1583663
7	0x3f8abc1a	1.0838654
8	0x3f369cfb	0.71333283
9	0x3f85384c	1.0407805
10	0x3f8dd671	1.1081067
11	0x3f845b64	1.034039
12	0x3f79998a	0.97499907
13	0x3f6bc3fa	0.9209591
14	0x3f5f8431	0.87311083
15	0x3f7c2454	0.9849293
16	0x3f9263b1	1.1436673
17	0x3f5ebf1a	0.8701035
18	0x3f7ef389	0.99590355
19	0x3f99f8c4	1.2029042
20	0x3f935f77	1.1513509
21	0x3f8d8911	1.1057454
22	0x3f8d1990	1.1023426
23	0x3f4f1243	0.8088724
24	0x3f6afdc2	0.91793454
25	0x3fb0289d	1.3762394
26	0x3f74eaa0	0.9567051
27	0x3f6f4621	0.93466383
28	0x3f95c67a	1.1701195
29	0x3f61459a	0.8799683
30	0x3f8ab804	1.0837407
31	0x3fe3137a	1.7740319
32	0x3f901311	1.1255819
33	0x3f4acbbf	0.7921714
34	0x3f4b273a	0.7935673
35	0x3f5c5302	0.8606416
36	0x3f9499e5	1.1609465
37	0x3f239c78	0.6391063
38	0x3fa2367f	1.2672881
39	0x3f3b9455	0.7327321
40	0x3f8b4800	1.0881348
41	0x3fa56804	1.2922368
42	0x3f6dcc79	0.92890126
43	0x3f6de81d	0.929323
44	0x3f73ca49	0.9523054
45	0x3fa01cc6	1.2508781
46	0x3f917c00	1.1365967
47	0x3f7310a8	0.9494729
48	0x3f97ec38	1.1868963
49	0x3f9fd107	1.2485665
50	0x3f59ffe3	0.8515608
51	0x3f87134b	1.0552763
52	0x3f6337cb	0.8875701
53	0x3f5aafb4	0.8542435
54	0x3fa743d3	1.3067573
55	0x3f896ecb	1.0736936
56	0x3f9a24bb	1.2042459
57	0x3fb2e4f0	1.3976116
58	0x3f564563	0.83699626
59	0x3f48dd29	0.78462464
60	0x3f836af4	1.0267015
61	0x3f8a36c8	1.0797968
62	0x3f91f7d2	1.1403754
63	0x3fb721d1	1.4307195
64	0x3fa1ceb6	1.2641208
65	0x3f7bcf91	0.98363596
66	0x3f2f5a6d	0.68497354
67	0x3f87f9b8	1.0623083
68	0x3f724d18	0.94648886
69	0x3f4c279d	0.79747945
70	0x3fc32da7	1.5248307
71	0x3f80791c	1.003696
72	0x3f93863b	1.1525339
73	0x3fae225b	1.3604234
74	0x3f4c9443	0.7991373
75	0x3f7363b2	0.95074
76	0x3f862bde	1.0482137
77	0x3f7d14d8	0.9885993
78	0x3fa6edea	1.3041356
79	0x3fc705e7	1.5548676
80	0x3f8dd851	1.108164
81	0x3f63ce98	0.8898711
82	0x3f623c4d	0.8837326
83	0x3f90b9a5	1.1306654
84	0x3f8922b4	1.0713716
85	0x3f8b406e	1.0879037
86	0x3f967c1e	1.1756628
87	0x3f585afb	0.84513825
88	0x3f96b5e7	1.1774262
89	0x3fb96c3e	1.4486158
90	0x3f47b618	0.7801223
91	0x3f9f681e	1.2453649
92	0x3f8916b1	1.071005
93	0x3f897998	1.0740232
94	0x3f91f70a	1.1403515
95	0x3faea41d	1.3643833
96	0x3f9b66e7	1.2140778
97	0x3f7549cc	0.9581573
98	0x3f830958	1.0237226
99	0x3fb98c67	1.4495972
100	0x3fa38991	1.2776357
101	0x3f7fd43d	0.99933225
102	0x3f987eb3	1.1913666
103	0x3f7a6253	0.9780628
104	0x3f9e35c8	1.2360163
105	0x3fb8e0ab	1.4443563
106	0x3f67ccda	0.90546954
107	0x3f6bef6c	0.92162204
108	0x3f684758	0.9073386
109	0x3f9069cb	1.1282285
110	0x3f72ae4d	0.9479721
111	0x3faff58d	1.3746811
112	0x3f86b82a	1.0524952
113	0x3f7e05f9	0.99227864
114	0x3f881045	1.0629965
115	0x3fabddbf	1.3427047
116	0x3f84ae93	1.0365776
117	0x3f65a088	0.89698076
118	0x3f917b8c	1.1365829
119	0x3f92634d	1.1436554
120	0x3f86b0c5	1.0522696
121	0x3fa02f56	1.2514446
122	0x3f298a57	0.66226715
123	0x3f69332e	0.9109372
124	0x3f5cee79	0.8630138
125	0x3f9245d9	1.1427566
126	0x3f6f7c53	0.9354908
127	0x3f9edcb2	1.2411101
128	0x3f60a967	0.8775849
129	0x3f8de385	1.1085058
130	0x3f83bf13	1.0292686
131	0x3fa8edb0	1.3197536
132	0x3f93902d	1.1528374
133	0x3f78cf7e	0.9719161
134	0x3f5c792e	0.86122406
135	0x3f88dcf0	1.0692425
136	0x3f8908c1	1.0705796
137	0x3fab6781	1.3390962
138	0x3f5c6aaa	0.86100256
139	0x3f472fe0	0.77807426
140	0x3f4d2a3e	0.8014258
141	0x3fb23be9	1.3924533
142	0x3f73c438	0.9522128
143	0x3f9453fe	1.1588132
144	0x3f7e2d1f	0.992876
145	0x3f4a4df5	0.79025203
146	0x3f9ffdd8	1.2499342
147	0x3f82d626	1.0221603
148	0x3f4ecd59	0.80782086
149	0x3f632f87	0.88744396
150	0x3f8b7909	1.0896312
151	0x3f7e000a	0.9921881
152	0x3f9a5c41	1.2059404
153	0x3f8d510e	1.1040361
154	0x3f4c3571	0.79769045
155	0x3f80de7b	1.0067896
156	0x3f7a34e4	0.97736955
157	0x3f9d1c94	1.2274346
158	0x3f82a23e	1.0205762
159	0x3f98ecb9	1.1947242
160	0x3f7c4d98	0.985559
161	0x3f783000	0.9694824
162	0x3f93fd72	1.156172
163	0x3fa6e371	1.303816
164	0x3f351f50	0.70750904
165	0x3f579a3e	0.8421973
166	0x3f890d99	1.0707275
167	0x3f4685a2	0.7754766
168	0x3f8c7a02	1.0974734
169	0x3f95d411	1.1705343
170	0x3f660ff9	0.8986812
171	0x3f813757	1.0095013
172	0x3f5268e8	0.82191324
173	0x3fa8362f	1.3141536
174	0x3f83658d	1.0265366
175	0x3f9a424a	1.205148
176	0x3f7e2deb	0.99288815
177	0x3f814951	1.0100499
178	0x3f7a1ecb	0.97703236
179	0x3f975055	1.182139
180	0x3f2d09c1	0.6759301
181	0x3f7c15cb	0.98470753
182	0x3f83834a	1.0274441
183	0x3f703eb8	0.938457
184	0x3f92fcfa	1.1483452
185	0x3f915755	1.1354777
186	0x3f8407f4	1.0314927
187	0x3f8f5106	1.1196601
188	0x3f7040bc	0.93848777
189	0x3fa4daef	1.2879313
190	0x3f85a533	1.044104
191	0x3fa2d635	1.2721621
192	0x3f7f1cf9	0.99653584
193	0x3f777761	0.9666653
194	0x3f6ca1e6	0.9243454
195	0x3f91d288	1.1392374
196	0x3f58b359	0.8464866
197	0x3f5270ea	0.82203543
198	0x3f6f43b3	0.93462676
199	0x3f7945d5	0.9737218
200	0x3f8fb2d4	1.1226449
201	0x3f871fda	1.0556595
202	0x3f802128	1.0010118
203	0x3f87b1ed	1.0601174
204	0x3f83cfa0	1.0297737
205	0x3f7a942e	0.97882354
206	0x3f8b9db2	1.09075
207	0x3f9b84d6	1.2149913
208	0x3f7a4269	0.97757584
209	0x3f57339f	0.8406314
210	0x3f8a6bbb	1.0814127
211	0x3fa0f7af	1.2575587
212	0x3f4c42dc	0.7978952
213	0x3f52549d	0.8216036
214	0x3f617414	0.88067746
215	0x3f87f011	1.0620137
216	0x3f8e8084	1.113297
217	0x3f6809ba	0.9063984
218	0x3f82f924	1.0232282
219	0x3f95637e	1.1670988
220	0x3f8646fa	1.049041
221	0x3f9266d7	1.1437634
222	0x3f80db21	1.0066873
223	0x3f743b96	0.9540342
224	0x3f9baaa9	1.2161456
225	0x3f8358be	1.0261457
226	0x3f899b4b	1.0750517
227	0x3f89d2a2	1.0767405
228	0x3f5b26af	0.856059
229	0x3f522a6e	0.8209599
230	0x3f886a70	1.0657482
231	0x3f637715	0.8885358
232	0x3f9008bf	1.1252669
233	0x3f6524ed	0.8950947
234	0x3f7a5a46	0.97793996
235	0x3f8db406	1.1070564
236	0x3f510759	0.81651837
237	0x3f8e3bd2	1.1112006
238	0x3f751b64	0.9574492
239	0x3f82802b	1.0195364
240	0x3f8ca852	1.0988867
241	0x3f83a7f7	1.0285634
242	0x3f8494db	1.0357927
243	0x3f88627a	1.0655053
244	0x3f52522b	0.8215663
245	0x3f7608f8	0.96107435
246	0x3f825d72	1.0184767
247	0x3f45a79a	0.77208865
248	0x3f8c9207	1.0982064
249	0x3f4947b3	0.7862503
250	0x3f71bf6b	0.94432706
251	0x3f9d5e54	1.2294412
252	0x3f847692	1.0348685
253	0x3fbced15	1.4759852
254	0x3f8569be	1.0422895
255	0x3f8cbf3a	1.0995858

0.cnn1.norm_1.norm.bias f4 [40, 16]
0	0xbe638c66	-0.22221527
1	0xbd837118	-0.06418055
2	0xbcf279ce	-0.029599097
3	0x3e270637	0.16310965
4	0x3e774291	0.24146487
5	0x3d4e1283	0.050310623
6	0x3ddcf76b	0.10789379
7	0xb8cdb03b	-9.807987e-05
8	0xbdba4729	-0.09095604
9	0x3d8859fb	0.066577874
10	0xbcc66a78	-0.02422069
11	0x3c6c01d7	0.0144047355
12	0xbe696bb7	-0.22794996
13	0xbe2b85a0	-0.16750193
14	0xbd8161df	-0.063174956
15	0x3d142e37	0.036176886
16	0xbcc5e3ea	-0.02415653
17	0xbdeb7c16	-0.11498277
18	0x3e671e2a	0.225701
19	0xbe571ce8	-0.2100712
20	0xbe236a68	-0.1595856
21	0xbdd74ac6	-0.10512309
22	0x3d8905cc	0.06690559
23	0x3e013444	0.12617594
24	0x3d50998b	0.05092768
25	0xbe88c484	-0.2671243
26	0x3dbdcde8	0.09267789
27	0xbe806b37	-0.25081798
28	0xba663e68	-0.0008783103
29	0x3c190858	0.009340368
30	0x3df04f37	0.11733859
31	0x3d2210a4	0.03956665
32	0xbdc67f99	-0.09692306
33	0xbdfcc74a	-0.12342699
34	0xbc716253	-0.014732915
35	0xbe87ef8e	-0.26549953
36	0x3bc71c38	0.006076362
37	0xbe1ee80c	-0.15518206
38	0x3bdd687c	0.0067568403
39	0x3dc1e762	0.09467961
40	0x3e1bb125	0.15204294
41	0xbe5b4413	-0.21412687
42	0xbda68b8d	-0.08132086
43	0x3e42e95f	0.19034337
44	0x3d277b79	0.040889237
45	0xbeda625b	-0.42653164
46	0xbe4a7222	-0.197701
47	0xbdcbf1c8	-0.099582255
48	0xbe0c1ab9	-0.13682069
49	0x3e64f8b6	0.223605
50	0x3e123de0	0.14281416
51	0x3dcbff4d	0.09960804
52	0xbdbfb448	-0.09360558
53	0xbe45aad6	-0.1930345
54	0x3db392c5	0.087682284
55	0xbe5d28d6	-0.21597609
56	0x3ea4c42a	0.3218091
57	0x3d9a3682	0.07529928
58	0xbe7ccdae	-0.24687836
59	0x3e3fd8a7	0.1873499
60	0x3bdf5f7c	0.0068168025
61	0xbdf935c5	-0.12168459
62	0xbd4240c6	-0.047425054
63	0x3db17a75	0.08665935
64	0xbd489947	-0.0489743
65	0xbd9582a5	-0.07300309
66	0x3e4aebe1	0.19816543
67	0xbd854f49	-0.06509263
68	0xbdc441c3	-0.095828556
69	0x3b3d41ec	0.0028878404
70	0xbd066165	-0.032807726
71	0xbcc889d1	-0.024479778
72	0x3ddec55a	0.108774856
73	0x3d3de943	0.046365034
74	0xbe1931d0	-0.14960408
75	0xbdf65dfc	-0.12029645
76	0x3e2e4a5c	0.17020553
77	0xbd90b22b	-0.07065233
78	0x3e1d8d41	0.15385915
79	0x3dc5c23e	0.096561894
80	0xbde4ba26	-0.111683175
81	0xbbe8998a	-0.0070983814
82	0x3d9814ba	0.07425828
83	0xbe701a3f	-0.23447512
84	0x3d8401f4	0.06445685
85	0xbceb0f25	-0.028693745
86	0x3cd8e934	0.026478387
87	0xbd828947	-0.0637384
88	0x3e27b8ab	0.16379039
89	0x3da8e075	0.08245937
90	0xbe9d9f7d	-0.30785742
91	0x3d5aea86	0.053446315
92	0x3d2415e2	0.04005993
93	0xbd9e6619	-0.07734317
94	0xbd67ca6e	-0.056589536
95	0x3d66ecd6	0.056378208
96	0xbda58b6e	-0.08083235
97	0xbda455dd	-0.080241896
98	0x3d447418	0.047962278
99	0xbc1f1172	-0.009708749
100	0xbbe91e78	-0.007114228
101	0x3cddf600	0.027094841
102	0xbd218e49	-0.039442334
103	0xbe1b96f5	-0.15194304
104	0xbd85a4f8	-0.06525606
105	0x3d55f6f8	0.05223748
106	0xbe673e92	-0.22582462
107	0xbe4a57c2	-0.1976004
108	0x3e514975	0.20438178
109	0xbc9c5e04	-0.019087799
110	0x3c73d40f	0.014882102
111	0xbbc27868	-0.0059347637
112	0xbe04732b	-0.12934558
113	0xbdb72bc7	-0.08943897
114	0xbc65f58e	-0.014035596
115	0x3e050a27	0.12992154
116	0x3d781f60	0.060576797
117	0xbd67fd66	-0.056638144
118	0xbd82a6cb	-0.063794695
119	0xbe34df6d	-0.17663355
120	0xbdacb665	-0.084332265
121	0xbd77a023	-0.060455453
122	0xbeb74ce5	-0.35800853
123	0xbe135cd7	-0.14390884
124	0x3e203302	0.15644458
125	0xbdc6ae4f	-0.097012155
126	0x3d16bec4	0.036803022
127	0xbd03d958	-0.032189697
128	0xbe09c6c6	-0.13454732
129	0xbe0c8e17	-0.13726078
130	0xbda57fa8	-0.08080989
131	0xbd987c42	-0.07445575
132	0x3da20c94	0.07912555
133	0x3cd432b4	0.025903083
134	0xbd0b2462	-0.033970244
135	0xbd2a86cc	-0.04163246
136	0xbe0c269e	-0.13686606
137	0x3d056495	0.032566626
138	0xbe4aa3a0	-0.1978898
139	0xbe287f07	-0.16454707
140	0xbd6e07f6	-0.05811306
141	0x3dce681c	0.10078451
142	0xbe5228bc	-0.20523351
143	0xbb6b9489	-0.0035946688
144	0xbddced02	-0.10787393
145	0xbd17073e	-0.03687214
146	0x3d95a454	0.07306734
147	0xbe1752bf	-0.14777659
148	0xbdae3f44	-0.08508161
149	0xbce869d7	-0.02837078
150	0x3e1c12c0	0.15241528
151	0xbe3195ec	-0.17342347
152	0xbd211014	-0.039321974
153	0x3d27d78f	0.040977057
154	0xbe3c9e67	-0.184198
155	0xbd1be3a8	-0.038058907
156	0x3e008a02	0.12552646
157	0x3d850dd2	0.06496777
158	0x3d937c12	0.07201399
159	0xbcd79ae1	-0.02631897
160	0xbdc6bc12	-0.0970384
161	0xbe8f54a2	-0.27994257
162	0xbde75709	-0.112958975
163	0xbe81f4df	-0.25382134
164	0xbe943a2a	-0.28950626
165	0xbd3ebc63	-0.04656638
166	0x3caff464	0.02147884
167	0xbe3b8f81	-0.18316461
168	0xbe49be98	-0.19701612
169	0xbc634729	-0.013871946
170	0xbe867b1d	-0.26265803
171	0xbd736498	-0.059422106
172	0xbcf7c986	-0.030247461
173	0x3d9b1ba8	0.075736344
174	0xbda88818	-0.08229083
175	0x3bedc911	0.007256635
176	0xbdb37c8a	-0.08763988
177	0x3d358f55	0.044326145
178	0xbd86fd45	-0.06591276
179	0xbe3c81f1	-0.18408944
180	0xbe5e3a33	-0.21701889
181	0xbde12680	-0.109936714
182	0xbcca6e3d	-0.024710769
183	0xbe63c870	-0.2224443
184	0xbd9f348f	-0.07773697
185	0xbca08acf	-0.01959744
186	0xbdbafa0e	-0.091297254
187	0x3dace801	0.08442689
188	0x3ce9eb9f	0.028554736
189	0x3e29b7da	0.1657404
190	0xbe000e32	-0.12505415
191	0xbcbecf1e	-0.02329212
192	0xbe20424b	-0.15650289
193	0xbd55f2fb	-0.052233677
194	0xbd33282b	-0.04373948
195	0xbe3f9c1d	-0.18711896
196	0xbe12c100	-0.14331436
197	0xbd56f3f5	-0.05247875
198	0xbde1def2	-0.110288516
199	0xbe0f0a45	-0.13968761
200	0xbd7f171a	-0.06227789
201	0xbd61fc64	-0.05517234
202	0xbdbc9495	-0.09208027
203	0x3d9a15b1	0.075236686
204	0x3d7e9a09	0.062158618
205	0xbcd2efa5	-0.025749037
206	0x3c2d7aa8	0.010588326
207	0xbd5335b4	-0.051564887
208	0xbdd702f1	-0.10498608
209	0xbd17e96c	-0.037087843
210	0x3de9e796	0.11421125
211	0x3d6d8191	0.057984892
212	0xbd9ede19	-0.077572055
213	0xbe8513b4	-0.25991595
214	0xbcc15aa1	-0.023602786
215	0xbd7a78bf	-0.06115031
216	0xbb5a3673	-0.0033296614
217	0xbc64c167	-0.013962126
218	0x3c56280e	0.013071073
219	0x3b20d808	0.0024542827
220	0x3d12df5f	0.035857555
221	0xbe3925e5	-0.18080862
222	0xbdc2bf5e	-0.09509157
223	0xbe6d2b96	-0.23161158
224	0xbdadb156	-0.0848109
225	0xbdaacc79	-0.08339781
226	0xbce85df0	-0.028365105
227	0xbe135144	-0.14386469
228	0xbdd5860a	-0.104259565
229	0xbd324425	-0.04352202
230	0xbd553647	-0.052053716
231	0xbe0fb6e9	-0.14034618
232	0x3c1e4dae	0.009662075
233	0xbcdbfaef	-0.026853053
234	0x3d61e4e8	0.055149943
235	0x3ce8a2c4	0.028397925
236	0xbd1345cb	-0.03595523
237	0xbcea29cc	-0.028584383
238	0x3dfd5d55	0.12371317
239	0x3cab7ab3	0.020932531
240	0xbd0e3bcd	-0.034725
241	0x3a9ec7de	0.0012114008
242	0x3d8ec3e9	0.06970961
243	0x3d472710	0.048621237
244	0xbdfcbdf2	-0.12340917
245	0xbdecef47	-0.11569076
246	0xbaec1630	-0.0018011983
247	0xbe8caf28	-0.27477384
248	0xbde1cbc5	-0.11025194
249	0x3d216c10	0.039409697
250	0xbdea31e4	-0.11435297
251	0x3d21baf4	0.039484933
252	0xbdeaf29a	-0.11472054
253	0xbd02231b	-0.03177176
254	0x3e4666b9	0.19375123
255	0x3cb8d363	0.022561735

0.cnn1.conv_2.conv.weight f4 [16, 16, 3, 3]
0	0x3d9d8b52	0.07692589
1	0x3d1df7ef	0.038566526
2	0xba8b919a	-0.0010648251
3	0x3de3f5dd	0.11130879
4	0xbc73c3b9	-0.014878207
5	0xbe22c951	-0.15897109
6	0xbc696489	-0.014245161
7	0xbdb41ec4	-0.087949306
8	0xbd5a6417	-0.05331811
9	0xbe2c2d5f	-0.16814183
10	0xbd5df82d	-0.054191757
11	0xbd0f1971	-0.034936372
12	0xbd975cd0	-0.073907495
13	0xbe382917	-0.17984425
14	0x3c87113a	0.016487706
15	0xbda477e4	-0.0803068
16	0x3bbf8dfb	0.005845783
17	0xbd26c61d	-0.04071628
18	0xbc658f66	-0.01401124
19	0xbd760bc3	-0.06006981
20	0x3c5237b8	0.012830667
21	0xbdaf327b	-0.0855455
22	0xbc742025	-0.014900242
23	0x3cc80c71	0.024419995
24	0xbdb3e9c9	-0.08784825
25	0x3c74eaa3	0.01494852
26	0xbb5a9a3f	-0.0033356098
27	0xbc3ecf3a	-0.011646086
28	0xbdd25382	-0.10269834
29	0x3dfa5a4f	0.12224256
30	0x3d0ca171	0.03433365
31	0xbd7601dd	-0.06006037
32	0xbe446349	-0.191785
33	0x3e786a41	0.24259283
34	0x3db57b87	0.088614516
35	0x3c0773e3	0.008267376
36	0xbc5fb799	-0.013654613
37	0x3a557ece	0.00081442005
38	0xbd15c1e7	-0.036561873
39	0xbd5fd082	-0.054642208
40	0x3d87dc3c	0.06633803
41	0x3c9dd3f3	0.019266104
42	0x3cd437d9	0.025905536
43	0x3c7fd281	0.015614153
44	0x3d15994f	0.03652316
45	0x3d9b4b65	0.0758274
46	0x3c945277	0.018105729
47	0x3df02dc6	0.117274806
48	0xbdea8601	-0.114513405
49	0x3d77a5c7	0.060460832
50	0x3d747928	0.059685856
51	0xbc3c2279	-0.011482828
52	0x3bf4db3f	0.0074724252
53	0x3cd4288f	0.025898246
54	0xbd68b41a	-0.056812383
55	0x3b1eb6c6	0.0024217828
56	0x3e3b9cca	0.18321529
57	0x3d4764f8	0.048680276
58	0x3b60da4d	0.0034309805
59	0x3db79808	0.089645445
60	0xbcac1988	-0.021008268
61	0x3df06b58	0.11739224
62	0x3e4be26d	0.19910593
63	0x3db9fbf2	0.09081258
64	0xbc846608	-0.016161934
65	0xbd13117b	-0.035905343
66	0xbcb7b4df	-0.022425113
67	0x3d4bac18	0.04972467
68	0x3c3c95c2	0.011510314
69	0x3d9d6e76	0.076870844
70	0xbd7994d0	-0.060932934
71	0x3e0a6c79	0.13517942
72	0x3e4d9c49	0.2007915
73	0xbe50aa54	-0.20377475
74	0x3e8eb13e	0.278696
75	0x3e768d69	0.24077381
76	0xbd96b025	-0.07357816
77	0x3dfaefde	0.12252782
78	0xbe2d1ca8	-0.16905463
79	0xbda3564e	-0.07975446
80	0xbd606dec	-0.05479233
81	0x3d97bf78	0.07409567
82	0x3e239f1f	0.15978669
83	0xbc8c07c9	-0.017093556
84	0xbd6e6198	-0.05819854
85	0xbda49e45	-0.08038
86	0xbddfa9f3	-0.10921087
87	0x3e038956	0.12845358
88	0x3c3af5a9	0.011411109
89	0xbdcbef83	-0.099577926
90	0xbe2f71ef	-0.17133306
91	0x3d378aaf	0.044809993
92	0xbd33e360	-0.043918014
93	0xbde6a6d5	-0.112622894
94	0x3b3f9b66	0.0029236912
95	0xbd3e7db1	-0.046506587
96	0xbdd96f64	-0.10616949
97	0xbe333138	-0.17499244
98	0x3c667a52	0.014067249
99	0x3e659fef	0.22424291
100	0x3e506067	0.20349275
101	0x3e91da22	0.28486735
102	0x3d8a7fdc	0.067626685
103	0x3dfea7dc	0.124343604
104	0x3d628c87	0.0553098
105	0x3e8bf889	0.27338055
106	0x3e9211a4	0.28529084
107	0x3e3f77be	0.18698022
108	0xbe43691c	-0.19083065
109	0xbc8272d2	-0.015923891
110	0xbd9da54c	-0.076975435
111	0xbdf8b34d	-0.12143574
112	0xbd50bc20	-0.05096066
113	0x3d8d3fee	0.06896959
114	0xbd1dab14	-0.03849323
115	0xbcb3d0a6	-0.021950077
116	0x3d91ccd1	0.07119144
117	0xbe0318a4	-0.12802368
118	0x3ca7cdc2	0.020483855
119	0x3d42bf56	0.047545753
120	0xbdbcda7e	-0.092213616
121	0x3c7fd667	0.015615082
122	0x3d78fe70	0.060789526
123	0x3d8d7b21	0.069082506
124	0x3cbdcb5e	0.023168262
125	0xbaa0265e	-0.0012218466
126	0x3e2e7872	0.17038134
127	0x3d9d4304	0.07678798
128	0xbe4bdd03	-0.19908528
129	0x3debbd55	0.115107216
130	0xbcef148d	-0.029184604
131	0xbdbf37cb	-0.093368135
132	0x3dc2e09d	0.09515498
133	0x3b20b96a	0.0024524578
134	0xbd84e75f	-0.06489443
135	0x3e5a4f11	0.21319224
136	0x3d8bb47b	0.06821533
137	0x3d26b8be	0.040703528
138	0x3dcd1cbc	0.10015246
139	0x3d0d86a9	0.03455225
140	0xbe0bdf75	-0.13659461
141	0x3de4ff11	0.111814626
142	0x3a2515f0	0.00062975194
143	0x3d22afe7	0.039718535
144	0xbe0827f0	-0.13296485
145	0xbe7b5659	-0.24544658
146	0xbd80b7b4	-0.062850386
147	0xbe694108	-0.22778714
148	0xbe04892f	-0.12942956
149	0xbd4d7722	-0.050162442
150	0xbe3709f0	-0.17874885
151	0xbe9bee83	-0.30455408
152	0xbd2aa9e2	-0.04166592
153	0x3e7b2722	0.24526647
154	0x3e6888ad	0.22708388
155	0x3e6c0f0f	0.2305262
156	0x3e22b029	0.15887512
157	0x3dabc641	0.08387423
158	0x3d040bc9	0.0322378
159	0xbd716492	-0.058933802
160	0xbc67c8d1	-0.014146999
161	0x3d59f137	0.053208556
162	0x3e70db47	0.23521148
163	0x3e02ab43	0.12760644
164	0x3de61652	0.11234726
165	0x3e79a413	0.24378996
166	0x3e14dac3	0.14536576
167	0x3cbb1431	0.022836776
168	0x3eaba881	0.33526996
169	0x3d2db4a3	0.042408597
170	0x3e13c325	0.1442991
171	0x3d760687	0.06006482
172	0xbdbd58de	-0.09245466
173	0x3bcec8cd	0.0063105584
174	0xbd8ef782	-0.06980802
175	0xbdc9d5de	-0.09855245
176	0xbda33679	-0.07969374
177	0x3ddbfad0	0.10741198
178	0xbdb79bc6	-0.08965258
179	0xbd78bb10	-0.06072527
180	0x3e1c3d83	0.1525784
181	0xbd6e6b56	-0.058207832
182	0xbd21b50c	-0.0394793
183	0x3c4b4014	0.012405414
184	0xbde30746	-0.11085372
185	0xbe1a340c	-0.15058917
186	0x3e3f1f56	0.18664297
187	0xbb6fb475	-0.0036576067
188	0xbd538179	-0.051637147
189	0x3e3382fe	0.17530438
190	0x3db5748e	0.08860122
191	0x3debb45b	0.115090095
192	0x3dcf3019	0.10116596
193	0xbcee6ff8	-0.029106125
194	0xbd4206de	-0.04736983
195	0x3b972171	0.004612141
196	0x3c67e060	0.014152616
197	0xbb852370	-0.0040630624
198	0x3e35ddfe	0.17760465
199	0x3d89990a	0.06718643
200	0x3d33bb6d	0.043879915
201	0x3e294979	0.16531934
202	0x3c82e425	0.015977928
203	0xbe139aad	-0.14414473
204	0x3d319bed	0.043361593
205	0x3cc65e78	0.024214968
206	0x3d7cdeb3	0.06173582
207	0x3e1b9888	0.15194905
208	0x3e11547a	0.14192382
209	0x3e0cfc8c	0.13768214
210	0x3e27a956	0.1637319
211	0x3c98f7de	0.01867288
212	0x3d899864	0.06718519
213	0xbcdc0f12	-0.026862655
214	0x3d3937cc	0.045219228
215	0x3cda87c9	0.026676076
216	0x3c94e911	0.018177541
217	0xbd4a18e0	-0.04934013
218	0xbcbf80b8	-0.023376808
219	0x3d83ea42	0.064411655
220	0xbd4c4ece	-0.04987984
221	0xbb137bb2	-0.0022504148
222	0xbe2d88c6	-0.16946706
223	0xbd833a5c	-0.064076155
224	0xbdcedfb9	-0.101012655
225	0xbe7256aa	-0.23665872
226	0xbe7e5cbc	-0.24840063
227	0xbe19142d	-0.14949103
228	0xbe207442	-0.15669349
229	0xbe47734f	-0.1947758
230	0xbc83c499	-0.016084956
231	0xbe56aac8	-0.20963585
232	0xbe3c3553	-0.18379717
233	0xbe2c9bfe	-0.16856381
234	0x3da97930	0.08275068
235	0x3c8f71e7	0.017510368
236	0xbdacf8bd	-0.084458806
237	0xbc73210c	-0.014839422
238	0xbe239a25	-0.1597677
239	0xbe46b7ba	-0.19406024
240	0xbdaaab85	-0.08333496
241	0xbc4b32c9	-0.012402245
242	0xbe7645a7	-0.24050008
243	0x3cf43a7d	0.029813046
244	0x3c1fd7ef	0.009756072
245	0xbc601452	-0.01367672
246	0xbc10c1ac	-0.0088352375
247	0xbd2f5d9e	-0.04281389
248	0xbd7c1fea	-0.061553873
249	0xbcb609ab	-0.022221407
250	0xbde913cd	-0.1138073
251	0x3e25e6da	0.16201344
252	0x3eaa2c27	0.3323681
253	0x3e4fed2a	0.20305315
254	0x3d116f1c	0.035506353
255	0x3e94320f	0.28944442

0.cnn1.conv_2.conv.bias f4 [16]
0	0x3d0123cc	0.03152828
1	0x3d93a31c	0.07208845
2	0x3d1323d7	0.03592285
3	0xbe72b0cd	-0.23700257
4	0xbcb8fa11	-0.022580178
5	0x3e678599	0.22609557
6	0x3e2f0cef	0.17094778
7	0x3c4b84cc	0.012421798
8	0x3d9254a1	0.07145048
9	0xbde574b5	-0.11203901
10	0x3c61b633	0.01377635
11	0x3da65871	0.081223376
12	0x3e805e95	0.2507216
13	0x3e7b9354	0.2456792
14	0xbd90cc3d	-0.07070205
15	0xbe4cca50	-0.19999051

0.cnn1.norm_2.norm.weight f4 [40, 16]
0	0x3f764bde	0.96209514
1	0x3f6822eb	0.9067828
2	0x3f9a462c	1.2052665
3	0x3f8746b3	1.0568451
4	0x3fb4d810	1.4128437
5	0x3f6fb568	0.9363618
6	0x3f8f89b3	1.1213897
7	0x3f892976	1.0715778
8	0x3f658b72	0.896659
9	0x3f86ee48	1.0541468
10	0x3fa8b8b5	1.3181368
11	0x3f8c8df7	1.0980824
12	0x3f8f1d7c	1.1180873
13	0x3eb8c2a8	0.3608601
14	0x3fad634c	1.3545928
15	0x3fac6797	1.3469113
16	0x3f943c23	1.1580852
17	0x3f75c5dd	0.9600504
18	0x3f82120b	1.0161756
19	0x3f57d95e	0.8431605
20	0x3f1c9926	0.61171186
21	0x3f29a532	0.66267693
22	0x3f8629a4	1.0481458
23	0x3f965875	1.1745745
24	0x3f9b9270	1.2154064
25	0x3fbe2807	1.4855965
26	0x3ee6d552	0.45084625
27	0x3fab3ef8	1.3378592
28	0x3f8c7e7d	1.0976101
29	0x3fc6cd4f	1.5531405
30	0x3f6a9767	0.9163727
31	0x3f9836ee	1.1891763
32	0x3f68c79a	0.9092957
33	0x3f8020a7	1.0009965
34	0x3f8c4aa3	1.0960277
35	0x3f6d3982	0.92665875
36	0x3f76945b	0.9632012
37	0x3f33a0c8	0.7016721
38	0x3f922e10	1.1420307
39	0x3fa06ebb	1.2533792
40	0x3fc63c14	1.5487084
41	0x3fa05932	1.252722
42	0x3f42b1de	0.76052654
43	0x3fb33d78	1.4003134
44	0x3f962c13	1.17322
45	0x3f5e1e44	0.8676493
46	0x3f8c9b07	1.098481
47	0x3f80be84	1.0058141
48	0x3f645da1	0.89205366
49	0x3f7aa746	0.9791149
50	0x3f2e3b7c	0.68059516
51	0x3f7d3386	0.98906744
52	0x3f0ab253	0.5417835
53	0x3f5b805d	0.8574274
54	0x3f63e437	0.89020103
55	0x3f620160	0.8828335
56	0x3f9a6b6a	1.206403
57	0x3f5b3184	0.8562243
58	0x3f55a011	0.83447367
59	0x3fb2a3cb	1.3956236
60	0x3f585464	0.8450377
61	0x3f8a0a0f	1.078432
62	0x3fc06968	1.5032167
63	0x3f6e532b	0.93095654
64	0x3f75306f	0.9577703
65	0x3f7f48bd	0.99720365
66	0x3f72eb85	0.94890624
67	0x3f8561c2	1.0420458
68	0x3f481dc4	0.7817042
69	0x3f81fe52	1.0155737
70	0x3f84aa45	1.0364462
71	0x3f8cbda1	1.099537
72	0x3fb5f3c4	1.4215016
73	0x3f7d2a8d	0.9889305
74	0x3f727cf4	0.94721913
75	0x3fb98f19	1.4496795
76	0x3f8a5ee7	1.0810212
77	0x3f8b86a6	1.0900466
78	0x3f8edf5b	1.1161913
79	0x3f65a95a	0.89711535
80	0x3f7568b0	0.95862865
81	0x3f69bd03	0.91304034
82	0x3f47eb0c	0.7809303
83	0x3f96e80a	1.1789563
84	0x3f63a5d2	0.88924897
85	0x3f905e4e	1.127878
86	0x3f898224	1.0742841
87	0x3f694b2b	0.9113032
88	0x3fad5948	1.3542871
89	0x3f6b0229	0.9180017
90	0x3f77e126	0.96827924
91	0x3fd8bb1f	1.6932105
92	0x3f74f802	0.9569093
93	0x3f8895d1	1.067072
94	0x3f9d85b6	1.230643
95	0x3f8b4a6c	1.0882087
96	0x3f562f1e	0.83665645
97	0x3f666703	0.90000933
98	0x3f84af3d	1.0365978
99	0x3f8d5d6c	1.1044135
100	0x3f6abd9b	0.91695565
101	0x3f807659	1.0036117
102	0x3f94b2e8	1.1617098
103	0x3f84256e	1.0323923
104	0x3f971e89	1.1806194
105	0x3f953fc7	1.1660088
106	0x3f80f556	1.007487
107	0x3fa322f3	1.2745041
108	0x3f80233a	1.001075
109	0x3f89a74b	1.0754179
110	0x3f9adf10	1.2099323
111	0x3f84f970	1.0388622
112	0x3f985adf	1.1902732
113	0x3f71fb2e	0.94523895
114	0x3f81a92a	1.012975
115	0x3f8f388a	1.1189129
116	0x3f531a1f	0.8246173
117	0x3f8c4186	1.0957496
118	0x3f3c5430	0.7356596
119	0x3f7b6efc	0.98216224
120	0x3fb697dd	1.4265095
121	0x3f4cd75b	0.80016106
122	0x3f8c9bdc	1.0985065
123	0x3fb6103d	1.4223706
124	0x3f892adc	1.0716205
125	0x3f8b05b4	1.0861115
126	0x3fa5a8e0	1.2942162
127	0x3f93dfce	1.1552675
128	0x3f959ec8	1.1689081
129	0x3f78e1c4	0.9721949
130	0x3f4bb6cc	0.795758
131	0x3fa7bf1f	1.31052
132	0x3f6f8281	0.9355851
133	0x3f97a6d5	1.1847788
134	0x3f8f2a25	1.1184736
135	0x3f9314fb	1.1490778
136	0x3f9692c8	1.1763544
137	0x3f887694	1.0661187
138	0x3f870790	1.0549183
139	0x3fa18675	1.2619158
140	0x3f8ea6f7	1.1144704
141	0x3f9370ba	1.1518776
142	0x3f9b479f	1.2131232
143	0x3f72494f	0.9464311
144	0x3f83cce5	1.0296904
145	0x3f4e45ce	0.80575264
146	0x3f98c1b1	1.193411
147	0x3f83893f	1.0276259
148	0x3f846126	1.0342147
149	0x3f9cdd40	1.225502
150	0x3f4538e4	0.77039933
151	0x3f69db9e	0.91350734
152	0x3fa3c3a0	1.2794075
153	0x3f8a5dab	1.0809835
154	0x3f935794	1.1511102
155	0x3f899e52	1.075144
156	0x3f89c821	1.07642
157	0x3f825649	1.0182582
158	0x3f6ae996	0.91762674
159	0x3f5b8199	0.85744625
160	0x3f990432	1.1954405
161	0x3f8c6d7c	1.0970912
162	0x3fa8579b	1.3151735
163	0x3f8de754	1.1086221
164	0x3f889711	1.0671102
165	0x3fa323be	1.2745283
166	0x3f8cace3	1.0990261
167	0x3f7e4c30	0.99335
168	0x3f9927ce	1.1965272
169	0x3f950b16	1.1644008
170	0x3f838239	1.0274116
171	0x3f99faa1	1.2029611
172	0x3f83f7e1	1.0310022
173	0x3f918405	1.1368414
174	0x3f94220f	1.1572894
175	0x3f8580eb	1.0429968
176	0x3f9e5df3	1.2372421
177	0x3f6e0489	0.9297567
178	0x3f3e53d5	0.7434667
179	0x3f6eceae	0.9328412
180	0x3f83bad7	1.0291394
181	0x3f9ef3b5	1.2418123
182	0x3f5cffe8	0.8632798
183	0x3f5b349e	0.8562716
184	0x3f93da2b	1.1550955
185	0x3f8b8bd2	1.0902045
186	0x3f82d154	1.0220132
187	0x3f90ad6b	1.1302923
188	0x3f8a52a8	1.0806475
189	0x3f928179	1.1445762
190	0x3f8c9427	1.0982713
191	0x3f9a8167	1.207074
192	0x3f83a218	1.0283842
193	0x3f8f779c	1.1208377
194	0x3f5963b6	0.8491777
195	0x3f8eb490	1.1148853
196	0x3f907f78	1.12889
197	0x3f9fcf70	1.248518
198	0x3f910b7c	1.133163
199	0x3f5c4b57	0.8605246
200	0x3f98a9b8	1.1926794
201	0x3f9575e7	1.1676606
202	0x3f8813fd	1.06311
203	0x3f98765e	1.1911123
204	0x3f85327b	1.040603
205	0x3faa2bb2	1.3294585
206	0x3f8fe692	1.124224
207	0x3f7fa56b	0.9986178
208	0x3f851ccb	1.0399412
209	0x3f49b20c	0.787873
210	0x3f63d695	0.889993
211	0x3f9f0207	1.2422494
212	0x3f6eb6cd	0.9324768
213	0x3f8a4ffc	1.0805659
214	0x3f585d03	0.84516925
215	0x3f398903	0.7247469
216	0x3f9f6a17	1.2454251
217	0x3f4584d6	0.77155817
218	0x3f829884	1.0202794
219	0x3f9048e3	1.1272243
220	0x3f488204	0.7832339
221	0x3f994096	1.1972835
222	0x3f740e44	0.9533427
223	0x3f7604fe	0.9610137
224	0x3f7d0d4b	0.9884841
225	0x3f711afb	0.94181794
226	0x3f732cdd	0.9499033
227	0x3f8edb52	1.1160681
228	0x3f79601c	0.97412276
229	0x3f95bc1f	1.1698035
230	0x3f8000f4	1.0000291
231	0x3f93afaa	1.1537983
232	0x3f905e63	1.1278805
233	0x3f4ce688	0.8003926
234	0x3f96b403	1.1773685
235	0x3f965575	1.174483
236	0x3f8e49dd	1.1116291
237	0x3f783158	0.9695029
238	0x3f8515fa	1.0397332
239	0x3f5e1a26	0.8675865
240	0x3f8f6e47	1.1205529
241	0x3f7571eb	0.9587695
242	0x3f8e9392	1.1138785
243	0x3f83b065	1.0288206
244	0x3f8c2dec	1.0951514
245	0x3f833ab5	1.0252291
246	0x3f89cabd	1.0764996
247	0x3f87fc25	1.0623823
248	0x3f9b388f	1.2126635
249	0x3f5719b2	0.8402358
250	0x3fb0f30e	1.3824174
251	0x3f899b57	1.0750531
252	0x3f5c4a55	0.8605092
253	0x3f689dde	0.90865886
254	0x3f7c65d5	0.98592883
255	0x3f88dae7	1.0691804

0.cnn1.norm_2.norm.bias f4 [40, 16]
0	0xbe84c4f6	-0.2593152
1	0xbe838449	-0.25686863
2	0x3e01d5e3	0.12679248
3	0xbd0e5bf0	-0.034755647
4	0x3dc8bdb1	0.09801806
5	0x3e4507d1	0.19241263
6	0x3d971155	0.07376353
7	0x3d887b97	0.06664198
8	0xbe81511d	-0.25257197
9	0xbd6ee898	-0.058327287
10	0xbdae4061	-0.08508373
11	0x3d8ee438	0.06977123
12	0xbe96ef14	-0.29479277
13	0x3dd2252f	0.102609985
14	0x3d8ef42b	0.06980165
15	0xbdc83d95	-0.09777371
16	0x3d94fc90	0.07274735
17	0xbed3b818	-0.4135139
18	0xbd4e2eac	-0.05033748
19	0xbec2ecd6	-0.38071316
20	0xbe6033be	-0.21894738
21	0xbed506ee	-0.4160685
22	0xbe381cd3	-0.17979746
23	0xbea1a4a6	-0.3157093
24	0x3e9649ff	0.2935333
25	0x3b979527	0.0046259346
26	0xbea7e159	-0.32789114
27	0x3dd6beb6	0.10485594
28	0xbd318552	-0.043340035
29	0xbd0854db	-0.03328405
30	0xbd8065b4	-0.06269398
31	0x3c92d0a1	0.017921748
32	0x3ce2a3aa	0.027665932
33	0xbe6bd7ed	-0.23031588
34	0x3e39040b	0.18067949
35	0xbe5e0814	-0.21682769
36	0xbea0afa7	-0.31384012
37	0x3e2d621d	0.16931958
38	0x3cc3d157	0.023903532
39	0x3e95257d	0.29130164
40	0xbd848180	-0.06470013
41	0xbda32888	-0.07966715
42	0xbe1870b0	-0.14886737
43	0x3e0da2cf	0.13831638
44	0xbcaea0c8	-0.0213169
45	0x3de16167	0.11004906
46	0xbe228973	-0.15872745
47	0xb9dc901e	-0.00042069046
48	0xbeb43220	-0.35194492
49	0xbd5c90c0	-0.05384898
50	0xbe80c1e6	-0.25147933
51	0xbde9b68e	-0.11411773
52	0xbeda79cd	-0.42671052
53	0xbdd428aa	-0.103593186
54	0x3d945bba	0.07244058
55	0xbee14cdd	-0.44003955
56	0x3e3e5278	0.18586147
57	0xbea65b1f	-0.32491395
58	0xbe0c6c14	-0.13713104
59	0x3e8c88f2	0.2744823
60	0xbca34dd2	-0.019934569
61	0x3d70f686	0.058828853
62	0x3d20ca74	0.039255574
63	0xbe0786d0	-0.1323502
64	0xbc5b4530	-0.013383195
65	0x3d3319f4	0.043725923
66	0xbd9b6940	-0.07588434
67	0xbd91a004	-0.07110599
68	0xbe9cac3a	-0.30600148
69	0xbe02bdbf	-0.12767695
70	0x3e05da88	0.13071644
71	0xbccc8265	-0.02496452
72	0x3e23b365	0.15986402
73	0xbe367008	-0.17816174
74	0xbe80f2e8	-0.25185323
75	0x3e633fdf	0.22192334
76	0xbdacb91a	-0.08433743
77	0xbb82af72	-0.0039882
78	0xbde554ee	-0.1119784
79	0xbdef49da	-0.11684008
80	0xbcf3c93c	-0.029759042
81	0x3df7977c	0.1208944
82	0x3ddb7a13	0.10716643
83	0xbc4c337d	-0.012463448
84	0xbec8d03e	-0.39221376
85	0xbdb3b295	-0.08774296
86	0xbd9eac36	-0.077476904
87	0x3ca1aef5	0.019736746
88	0x3d295f57	0.04135069
89	0xbe98afc4	-0.298216
90	0xbda8758b	-0.082255445
91	0x3e8f472c	0.27983987
92	0xbe4b9cb8	-0.19884002
93	0xbd9767cd	-0.07392845
94	0xbe3a413f	-0.18188952
95	0xbe12ab9b	-0.14323275
96	0xbc259fd7	-0.01010891
97	0x3e52e47c	0.20594972
98	0xbe0dfec7	-0.13866721
99	0xbe46c665	-0.19411619
100	0xbe03d306	-0.12873468
101	0xbd88d0e2	-0.06680466
102	0xbd873d0b	-0.0660344
103	0xbe8656bc	-0.26238048
104	0xbd8d0252	-0.06885208
105	0x3c7988fa	0.015230412
106	0xbe0f595b	-0.1399893
107	0x3d86beb1	0.0657934
108	0x3da0a968	0.07844812
109	0x3d3109ad	0.04322212
110	0xbe3b1966	-0.18271407
111	0xbeaa2012	-0.33227593
112	0x3e6ae943	0.22940545
113	0xbd3526a4	-0.044226304
114	0xbe7f5108	-0.24933255
115	0xbe3e8d17	-0.18608509
116	0xbe09885f	-0.13430928
117	0xbde284bb	-0.110604726
118	0xbdba2e99	-0.09090919
119	0xbdc5c31e	-0.09656356
120	0xbdbc96b5	-0.092084326
121	0xbe837ee7	-0.25682756
122	0xbdf39477	-0.11893552
123	0x3e18a8a2	0.14908078
124	0xbe4510e2	-0.19244722
125	0xbde4bb8c	-0.11168584
126	0x3c58bd08	0.013228662
127	0xbe29257c	-0.16518205
128	0x3e005daa	0.1253573
129	0x3dc85242	0.097813144
130	0xbdd56d56	-0.10421245
131	0x3d8bd8fb	0.06828495
132	0x3d5fae3b	0.05460952
133	0xbd898fe6	-0.067168996
134	0x3d361c38	0.044460505
135	0xbd4debf9	-0.05027387
136	0xbe37ac05	-0.17936714
137	0xbd1f890c	-0.038949057
138	0xbdfbd340	-0.12296152
139	0x3cfc6bb5	0.030813077
140	0x3d5fd581	0.054646973
141	0xbe4260ab	-0.18982188
142	0xbbf234df	-0.0073915566
143	0xbe3e39ff	-0.18576811
144	0x3dd697da	0.10478182
145	0xbded0626	-0.11573438
146	0xbd958a8a	-0.07301815
147	0xbe296d56	-0.16545615
148	0xbc999000	-0.018745422
149	0x3cae41cb	0.021271607
150	0xbcc4c2f2	-0.024018738
151	0xbe58d438	-0.21174705
152	0x3d8e8a35	0.06959955
153	0xbd5a692c	-0.053322956
154	0xbe5d95fb	-0.21639244
155	0x3d423529	0.04741398
156	0xbc4cae4c	-0.0124927275
157	0xbe0202db	-0.12696402
158	0xbe3210f0	-0.17389274
159	0xbdc18046	-0.09448294
160	0xbd40388a	-0.04692892
161	0xbe032369	-0.12806477
162	0xbd6320b6	-0.055451117
163	0x3d56ba58	0.052423805
164	0xbe10d129	-0.14142288
165	0xbca02f3f	-0.019553779
166	0xbbbc2d5c	-0.005742712
167	0x3dd055ba	0.10172601
168	0x3d200676	0.03906866
169	0xbe76c2ba	-0.2409772
170	0xbe8e8220	-0.27833652
171	0x3e0408e9	0.12894024
172	0x3e2b882e	0.16751167
173	0xbda3f3cd	-0.08005486
174	0xbda29beb	-0.07939895
175	0xbe256eda	-0.16155568
176	0xbde55b60	-0.11199069
177	0xbdd15ee7	-0.10223179
178	0xbe6bde79	-0.23034085
179	0xbcf8d424	-0.030374594
180	0x3c2ac2ea	0.010422448
181	0xbe0a4bbb	-0.13505451
182	0xbe4967e1	-0.19668533
183	0xbe8b5534	-0.27213442
184	0x3be652d4	0.007028917
185	0xbe98f004	-0.29870617
186	0xbd62ac97	-0.055340376
187	0x3d068224	0.032838956
188	0xbdea833f	-0.114508145
189	0x3d1fa756	0.038977943
190	0xbdecd115	-0.11563317
191	0xbbe638aa	-0.007025798
192	0xbbfb455c	-0.0076681804
193	0xbda23ece	-0.07922135
194	0xbd670a44	-0.056406274
195	0xbe1ef0c4	-0.15521532
196	0x3d9d7a51	0.07689346
197	0x3b7df2cf	0.0038749462
198	0x3dbf365a	0.093365386
199	0x3d9848a6	0.074357316
200	0x3d0901ce	0.033448987
201	0xbd489392	-0.04896886
202	0xbe2a6324	-0.16639382
203	0x3d27d5ea	0.04097549
204	0x3c8e9682	0.017405752
205	0x3d8dffb4	0.06933537
206	0x3ddcd4e9	0.10782797
207	0xbe985038	-0.29748702
208	0xbd9f077f	-0.07765102
209	0xbdca5eae	-0.0988134
210	0xbdf5f54b	-0.120096765
211	0xbe5ab462	-0.21357873
212	0xbdf15c61	-0.11785198
213	0xbe1235b3	-0.14278297
214	0xbdd744c3	-0.10511162
215	0xbdca5d21	-0.09881044
216	0x3e2bf69a	0.1679329
217	0xbe824437	-0.2544267
218	0xbe345989	-0.1761228
219	0xbd13ba1a	-0.036066152
220	0xbe5fb6a2	-0.21847013
221	0xbd80097e	-0.062518105
222	0x3e3aef37	0.18255316
223	0xbe7f68e2	-0.24942353
224	0xbdb724ca	-0.08942564
225	0xbd82d036	-0.06387369
226	0xbec35118	-0.38147807
227	0xbe86c873	-0.26324806
228	0xbd2c7997	-0.042108145
229	0x3e140370	0.14454436
230	0xbdac5be6	-0.08415966
231	0x3e263334	0.1623047
232	0x3d8159ad	0.063159324
233	0xbe66fe8a	-0.22558036
234	0xbde71815	-0.1128389
235	0xbd19732d	-0.037463356
236	0xbd54d48d	-0.051960517
237	0x3cec4a06	0.02884389
238	0x3d856e24	0.06515148
239	0xbeab4855	-0.33453622
240	0xbc29a7fa	-0.01035499
241	0xbd6c01f8	-0.057619065
242	0xbdce29b3	-0.10066547
243	0xbe016d6f	-0.12639402
244	0xbe35d03a	-0.17755213
245	0xbe89cbeb	-0.2691339
246	0xbd90e898	-0.07075614
247	0xbe94c12b	-0.29053625
248	0x3dab6e19	0.08370609
249	0xbeba7360	-0.3641615
250	0xbc9ac39c	-0.018892102
251	0x3e0ea5b2	0.13930395
252	0x3dd40479	0.103524156
253	0xbe3bf659	-0.18355693
254	0xbce68cb0	-0.028143257
255	0xbe88f83f	-0.26751897

0.cnn2.conv_1.conv.weight f4 [32, 16, 3, 3]
0	0xbda1ca90	-0.07899964
1	0xbda96206	-0.082706496
2	0x3d5dab7a	0.05411861
3	0xbd8bde33	-0.068294905
4	0xbdd4f4c7	-0.1039825
5	0x3d81fbee	0.0634688
6	0xbd20e04c	-0.039276406
7	0xbdd4cf68	-0.10391122
8	0x3de7bc35	0.113151945
9	0x3dcbfdfc	0.09960553
10	0x3c9f588a	0.019451398
11	0x3d4a458a	0.049382724
12	0x3e8d19c2	0.27558714
13	0x3dd1cb01	0.10243798
14	0x3dca1c34	0.098686606
15	0x3e64c3c8	0.2234031
16	0x3dfa656e	0.122263774
17	0xbbc3ca34	-0.005975032
18	0x3e74d48d	0.23909207
19	0x3e4ed16b	0.20197074
20	0xbd98f0ca	-0.07467802
21	0xbe08bd03	-0.13353352
22	0xbd56344e	-0.052295975
23	0xbdcf9f17	-0.10137766
24	0xbc2dc26a	-0.010605434
25	0x3cc43331	0.023950191
26	0xbcd474eb	-0.025934657
27	0xbe0c940a	-0.13728347
28	0xbdd962d2	-0.106145516
29	0xbde40207	-0.11133199
30	0xbda551b9	-0.08072228
31	0xbc4eefd8	-0.012630425
32	0xbd8ed011	-0.06973279
33	0x3d9e2398	0.07721633
34	0xbc323245	-0.010876243
35	0xbdaad500	-0.08341408
36	0xbd9fa198	-0.077944934
37	0xbd8aad3c	-0.06771323
38	0xbd968cdd	-0.07351086
39	0xbe72eeeb	-0.23723952
40	0xbd2c8c89	-0.042126212
41	0xbda679fc	-0.081287354
42	0x3c5017f3	0.012701022
43	0x3d5821bc	0.052766547
44	0xbd6acf7c	-0.05732678
45	0xbcb0eb1e	-0.021596488
46	0xbc77b9ac	-0.015119951
47	0x3ca23daf	0.019804804
48	0xbda556fa	-0.0807323
49	0x3da01615	0.07816712
50	0x3dbf9b8c	0.0935584
51	0xbacd7fa0	-0.0015678294
52	0x3df4eb78	0.119589746
53	0x3d7e7a06	0.06212809
54	0x3ca3bcb0	0.019987434
55	0xbd31ecb2	-0.04343862
56	0xbe6eca27	-0.23319302
57	0xbc1d380c	-0.009595882
58	0xbdddd7bf	-0.10832166
59	0xbe328a45	-0.17435558
60	0x3d4b823c	0.049684748
61	0xbde466c3	-0.11152413
62	0xbe602eb8	-0.21892822
63	0x3d3ae339	0.045626853
64	0x3d116f1e	0.03550636
65	0x3b6847ff	0.0035443304
66	0xbd0af346	-0.03392341
67	0x3b42f5d5	0.0029748578
68	0xbe11b6d6	-0.14229903
69	0xbcefd36f	-0.029275624
70	0xbc58f51f	-0.013242035
71	0xbcab02c7	-0.020875348
72	0xbcac2bf5	-0.021017054
73	0x3d8cefe7	0.06881695
74	0x3d1a208c	0.037628695
75	0xbe13f985	-0.14450653
76	0xbdab49de	-0.083636984
77	0xbde28ad2	-0.11061634
78	0x3dc717a5	0.09721307
79	0x3dec7868	0.11546403
80	0xbcd478a8	-0.02593644
81	0xbda51a22	-0.08061625
82	0x3df6be1d	0.1204798
83	0x3af5fd6a	0.001876754
84	0xbe626275	-0.22107871
85	0x3ce676c3	0.028132802
86	0xbb4a5dac	-0.0030878587
87	0xbe34fead	-0.17675276
88	0xbe11ed49	-0.14250673
89	0xbe6c49ad	-0.2307498
90	0x3daf93ab	0.08573087
91	0x3ddec731	0.108778365
92	0xbe15913a	-0.14606181
93	0x3b898687	0.004196945
94	0x3e1134f5	0.14180358
95	0xbd0c5178	-0.034257382
96	0xba6129ee	-0.0008589317
97	0x3d1ba439	0.03799841
98	0xbd84e3f5	-0.06488792
99	0xbe65e018	-0.22448766
100	0xbd0324dd	-0.032017577
101	0x3d1fd588	0.039022
102	0xbd4a4b06	-0.049387954
103	0xbd92a8ec	-0.071611255
104	0xbd952577	-0.072825365
105	0xbc3ffd31	-0.01171808
106	0xbdbca7d2	-0.09211697
107	0x3d7569ce	0.059915356
108	0xbe36b2b5	-0.17841609
109	0xbc550d17	-0.013003609
110	0xbcb877e1	-0.0225181
111	0xbdba4e9d	-0.090970255
112	0xbd495ed3	-0.049162697
113	0x3dab9ac4	0.083791286
114	0xbe1603a5	-0.14649828
115	0x3dbafec6	0.091306254
116	0x3d977b84	0.073966056
117	0x3cda3686	0.026637327
118	0x3cdcf6de	0.026973184
119	0xbd91c648	-0.07117897
120	0x3e3bc6e5	0.18337591
121	0x3dd51bc2	0.10405685
122	0x3e0e3739	0.13888253
123	0x3d73f003	0.059555065
124	0x3d585701	0.05281735
125	0x3dcdc99c	0.100482196
126	0xbf0116fe	-0.5042571
127	0xbe674976	-0.22586617
128	0xbe9b24cf	-0.3030152
129	0xbe3805a5	-0.17970903
130	0xbec06d9f	-0.37583634
131	0xbeba0d64	-0.3633834
132	0xbe93d38c	-0.28872335
133	0xbe7456b7	-0.23861204
134	0xbe3ce436	-0.1844643
135	0xbd9b17f1	-0.07572926
136	0x3dfbfd57	0.1230418
137	0xbc473449	-0.012158462
138	0x3c0eeced	0.00872348
139	0x3dfd9cf5	0.12383453
140	0xbdd985f1	-0.106212504
141	0xbd95ce70	-0.073147655
142	0x3d70aad1	0.058756653
143	0x3d82d3e1	0.06388069
144	0xbda6f9b3	-0.08153095
145	0xbdd12d88	-0.102137625
146	0xbd7f4200	-0.062318802
147	0x3d551162	0.05201853
148	0x3dbdff0f	0.09277164
149	0x3df9c11e	0.12195037
150	0xbdb0b177	-0.08627599
151	0x3b890f25	0.0041827136
152	0xbd345926	-0.04403033
153	0xbd50a2a0	-0.05093634
154	0x3de3c478	0.11121458
155	0xbc4e6635	-0.01259761
156	0xbd1732b7	-0.0369136
157	0x3cb3f0f6	0.021965485
158	0x3d10d469	0.03535882
159	0xbd5e2188	-0.054231197
160	0x3cd48aa1	0.02594501
161	0xbd06b480	-0.032886982
162	0xbe291c14	-0.16514617
163	0xbc861e39	-0.016371833
164	0xbbbedc09	-0.00582457
165	0xbdc9e671	-0.09858406
166	0xbdb99888	-0.09062296
167	0xbd89dcc0	-0.06731558
168	0x3d864864	0.06556776
169	0x3c12e832	0.0089664925
170	0x3b8d01e9	0.004303206
171	0xbe2d0fa3	-0.16900496
172	0xbe6b9392	-0.23005512
173	0x3d19565e	0.03743588
174	0xbe2932f4	-0.16523343
175	0xbd48ea94	-0.049051836
176	0x3d1cdb75	0.038295228
177	0x3d5eb453	0.05437119
178	0xbd690d6e	-0.056897573
179	0xbcca0c74	-0.024664141
180	0xbd23f4bd	-0.040028322
181	0xbd1c0f51	-0.038100544
182	0xbdbc40b1	-0.091920264
183	0xbe60c8ee	-0.21951649
184	0xbe2dba67	-0.16965638
185	0xbe88a461	-0.2668791
186	0x3cd92ab0	0.026509613
187	0x3d205ac3	0.039149057
188	0xbe012271	-0.12610795
189	0xbdea1561	-0.11429859
190	0xbe6618de	-0.22470424
191	0xbe9a858c	-0.30180013
192	0x3e493cfa	0.19652167
193	0x3d01ef2d	0.031722236
194	0x3d058f12	0.032607146
195	0xbd3203be	-0.0434606
196	0x3cd1233d	0.025529498
197	0x3d53ddc9	0.051725183
198	0x3da41a5b	0.080128394
199	0xbc558ae1	-0.0130336
200	0xbdd0aefa	-0.10189624
201	0x3d3a6ece	0.045515828
202	0xbb8bb31f	-0.0042632963
203	0x3d8c2050	0.068421006
204	0x3e0c1e32	0.13683394
205	0x3d151584	0.036397472
206	0xbcb1092c	-0.021610819
207	0x3e25754a	0.16158023
208	0x3e0142b2	0.12623098
209	0xbca78d0f	-0.020453004
210	0xbddd9cbf	-0.108209126
211	0xbdf00e76	-0.11721508
212	0x3d28621c	0.04110919
213	0xbe90f6f7	-0.2831342
214	0xbd9fef7b	-0.07809349
215	0xbd924418	-0.07141894
216	0xbe54e710	-0.20791268
217	0xbe8d32f2	-0.2757793
218	0xbeaf5309	-0.34243038
219	0x3e6c4404	0.23072821
220	0x3aa02e62	0.0012220854
221	0xbe6bd267	-0.23029481
222	0x3d815779	0.06315512
223	0xbd037c65	-0.032101054
224	0xbe65ddfa	-0.22447959
225	0xbe97c5b1	-0.29643014
226	0xbd1f4f22	-0.038893826
227	0xbcc3f955	-0.023922602
228	0xbe19cec6	-0.15020284
229	0x3df5880b	0.11988839
230	0x3e94cb84	0.2906152
231	0xbe17a372	-0.14808443
232	0x3be04f60	0.0068453997
233	0x3e68a390	0.22718644
234	0x3df8f427	0.12155943
235	0x3e3fb6d4	0.18722087
236	0x3d97cb1e	0.074117884
237	0x3c2a5cd6	0.01039811
238	0xbdc0544f	-0.093910806
239	0xbe226463	-0.15858607
240	0xbe376eb1	-0.17913319
241	0xbe3b3cb0	-0.18284869
242	0xbe94c22c	-0.2905439
243	0x3e7d3d28	0.2473036
244	0xbd31b057	-0.04338106
245	0xbde46c71	-0.11153496
246	0x3d5f0ef5	0.054457624
247	0x3d5210f6	0.051285706
248	0x3c8ee1ea	0.017441709
249	0x3d02cca3	0.031933438
250	0x3dbd00ff	0.092287056
251	0x3e4659c5	0.19370182
252	0xbe85d02b	-0.26135382
253	0xbddc2377	-0.10748952
254	0xbda97587	-0.0827437
255	0xbc335deb	-0.010947685

0.cnn2.conv_1.conv.bias f4 [32]
0	0x3e82f656	0.25578564
1	0x3e0db8c9	0.13840021
2	0xbcd3ae87	-0.025840057
3	0x3d8e9a4b	0.06963023
4	0x3d8e8f08	0.06960875
5	0x3e62376b	0.22091453
6	0x3c7fbf30	0.0156095475
7	0x3c537172	0.012905465
8	0xbdf53dd6	-0.11974685
9	0xbd868343	-0.06568005
10	0xbe034be6	-0.12821922
11	0x3dcef6bb	0.10105654
12	0x3d1a9c8e	0.03774696
13	0xbc937a19	-0.018002557
14	0x3d4d2984	0.05008842
15	0x3e3d08f8	0.18460453
16	0x3c865d12	0.016401801
17	0xbe5cb6b3	-0.21554069
18	0x3da64469	0.08118517
19	0xbd1ce1d7	-0.038301315
20	0x3dcaa55b	0.0989482
21	0xbcbc8de8	-0.023016885
22	0x3cdf318a	0.027245302
23	0xbd8ae80b	-0.0678254
24	0x3e1d2f20	0.15350008
25	0x3da5aa98	0.08089179
26	0xbe8a329b	-0.26991734
27	0x3e855e61	0.26048568
28	0x3eb2768f	0.34856078
29	0xbe22be58	-0.15892923
30	0x3dd0da62	0.10197903
31	0x3d6127fd	0.054969776
